…
168/168 [==============================] - 78s 460ms/step - loss: 0.8677 - accuracy: 0.6741 - val_loss: 62.5237 - val_accuracy: 0.8191
Epoch 2/3
168/168 [==============================] - 28s 165ms/step - loss: 0.3775 - accuracy: 0.8707 - val_loss: 86.6816 - val_accuracy: 0.8071
Epoch 3/3
168/168 [==============================] - 28s 166ms/step - loss: 0.2731 - accuracy: 0.9088 - val_loss: 231.7529 - val_accuracy: 0.7362


model.save('fruitdata.h5')

model.summary()

Model: "sequential"
_________________________________________________________________
Layer (type)                 Output Shape              Param #   
=================================================================
conv2d (Conv2D)              (None, 126, 126, 32)      896       
_________________________________________________________________
max_pooling2d (MaxPooling2D) (None, 63, 63, 32)        0         
_________________________________________________________________
flatten (Flatten)            (None, 127008)            0         
_________________________________________________________________
dense (Dense)                (None, 40)                5080360   
_________________________________________________________________
dense_1 (Dense)              (None, 70)                2870      
_________________________________________________________________
dense_2 (Dense)              (None, 6)                 426       
=================================================================
Total params: 5,084,552
Trainable params: 5,084,552
Non-trainable params: 0
_________________________________________________________________
 