…
89/89 [==============================] - 24s 264ms/step - loss: 0.3258 - accuracy: 0.8902 - val_loss: 1627.2305 - val_accuracy: 0.3009
Epoch 19/20
89/89 [==============================] - 26s 293ms/step - loss: 0.3268 - accuracy: 0.8869 - val_loss: 1958.1587 - val_accuracy: 0.2546
Epoch 20/20
89/89 [==============================] - 28s 313ms/step - loss: 0.2834 - accuracy: 0.9031 - val_loss: 2081.9343 - val_accuracy: 0.3090

model.save('vegetabledata.h5')

model.summary()

Model: "sequential"
_________________________________________________________________
Layer (type)                 Output Shape              Param #   
=================================================================
conv2d (Conv2D)              (None, 126, 126, 32)      896       
_________________________________________________________________
max_pooling2d (MaxPooling2D) (None, 63, 63, 32)        0         
_________________________________________________________________
flatten (Flatten)            (None, 127008)            0         
_________________________________________________________________
dense (Dense)                (None, 300)               38102700  
_________________________________________________________________
dense_1 (Dense)              (None, 150)               45150     
_________________________________________________________________
dense_2 (Dense)              (None, 75)                11325     
_________________________________________________________________
dense_3 (Dense)              (None, 9)                 684       
=================================================================
Total params: 38,160,755
Trainable params: 38,160,755
Non-trainable params: 0
_________________________________________________________